…
    "patience": 0,
    "pool": 100,
    "ref": null,
    "reglamb": 0,
    "resume": false,
    "save_every": 50,
    "seed": 1234,
    "senenc": "bow",
    "share_embed": false,
    "share_vocab": false,
    "smoothing": 0.0,
    "test": [
        "nips/test.lower",
        "nips/test.eg"
    ],
    "valid": [
        "nips/val.lower",
        "nips/val.eg"
    ],
    "vocab": "nips/vocab.new.100d.lower.pt",
    "vocab_size": 40000,
    "warmup": 4000,
    "writetrans": "decoding/gdp0.5_gl2.devorder"
}
2021-03-10 07:54:49 Start training
1: <pad>
total parameters: 5064951
PointerNet(
  (src_embed): Embedding(11505, 100)
  (sen_enc): LSTM(100, 150, batch_first=True, bidirectional=True)
  (encoder): GRNGOB(
    (slstm): SGRU(
      (s_gru): GRUCell(
        (r): Linear(in_features=1400, out_features=300, bias=True)
        (z): Linear(in_features=1400, out_features=300, bias=True)
        (c): Linear(in_features=1100, out_features=300, bias=True)
        (u): Linear(in_features=300, out_features=300, bias=True)
      )
      (e_gru): GRUCell(
        (r): Linear(in_features=900, out_features=150, bias=True)
        (z): Linear(in_features=900, out_features=150, bias=True)
        (c): Linear(in_features=750, out_features=150, bias=True)
        (u): Linear(in_features=150, out_features=150, bias=True)
      )
      (g_gru): GRUCell(
        (r): Linear(in_features=750, out_features=300, bias=True)
        (z): Linear(in_features=750, out_features=300, bias=True)
        (c): Linear(in_features=450, out_features=300, bias=True)
        (u): Linear(in_features=300, out_features=300, bias=True)
      )
    )
    (edgeemb): Embedding(4, 50)
    (gate1): Linear(in_features=500, out_features=200, bias=True)
    (gate2): Linear(in_features=500, out_features=350, bias=True)
  )
  (linears): ModuleList(
    (0): Linear(in_features=300, out_features=300, bias=True)
    (1): Linear(in_features=600, out_features=300, bias=True)
    (2): Linear(in_features=300, out_features=1, bias=True)
  )
  (decoder): LSTM(300, 300, batch_first=True)
)
epc:0 iter:1 loss:7.60 t:0.11 lr:1.0e+00
epc:0 iter:2 loss:6.58 t:0.06 lr:1.0e+00
epc:0 iter:3 loss:8.56 t:0.06 lr:1.0e+00
epc:0 iter:4 loss:7.80 t:0.09 lr:1.0e+00
epc:0 iter:5 loss:6.60 t:0.09 lr:1.0e+00
epc:0 iter:6 loss:7.95 t:0.08 lr:1.0e+00
epc:0 iter:7 loss:8.04 t:0.07 lr:1.0e+00
epc:0 iter:8 loss:8.23 t:0.07 lr:1.0e+00
…
